…
&lt;/span&gt;&lt;/span&gt;&lt;span class="line"&gt;&lt;span class="cl"&gt;&lt;span class="n"&gt;plt&lt;/span&gt;&lt;span class="o"&gt;.&lt;/span&gt;&lt;span class="n"&gt;tight_layout&lt;/span&gt;&lt;span class="p"&gt;()&lt;/span&gt;
&lt;/span&gt;&lt;/span&gt;&lt;span class="line"&gt;&lt;span class="cl"&gt;&lt;span class="n"&gt;plt&lt;/span&gt;&lt;span class="o"&gt;.&lt;/span&gt;&lt;span class="n"&gt;show&lt;/span&gt;&lt;span class="p"&gt;()&lt;/span&gt;
&lt;/span&gt;&lt;/span&gt;&lt;/code&gt;&lt;/pre&gt;&lt;/td&gt;&lt;/tr&gt;&lt;/table&gt;
&lt;/div&gt;
&lt;/div&gt;&lt;pre&gt;&lt;code&gt;Model structure and parameter statistics:
----------------------------------------------------------------
Layer (type) Output Shape Param #
================================================================
Linear-1 [400, 128] 2,688
BatchNorm1d-2 [400, 128] 256
ReLU-3 [400, 128] 0
Dropout-4 [400, 128] 0
Linear-5 [400, 256] 33,024
BatchNorm1d-6 [400, 256] 512
ReLU-7 [400, 256] 0
Dropout-8 [400, 256] 0
Linear-9 [400, 128] 32,896
BatchNorm1d-10 [400, 128] 256
ReLU-11 [400, 128] 0
Dropout-12 [400, 128] 0
Linear-13 [400, 4] 516
================================================================
Total params: 70,148
Trainable params: 70,148
Non-trainable params: 0
----------------------------------------------------------------
Input size (MB): 0.03
Forward/backward pass size (MB): 6.26
Params size (MB): 0.27
Estimated Total Size (MB): 6.56
----------------------------------------------------------------
Epoch[0]:: | Acc on Train:31.812% | Acc on Test:30.750% | Loss: 1.22177 | total_time: 0.0878s
…
t;/span&gt;&lt;span class="o"&gt;=&lt;/span&gt;&lt;span class="mi"&gt;1&lt;/span&gt;&lt;span class="p"&gt;,&lt;/span&gt;&lt;span class="n"&gt;device&lt;/span&gt;&lt;span class="o"&gt;=&lt;/span&gt;&lt;span class="s1"&gt;&amp;#39;cpu&amp;#39;&lt;/span&gt;&lt;span class="p"&gt;)&lt;/span&gt;
&lt;/span&gt;&lt;/span&gt;&lt;/code&gt;&lt;/pre&gt;&lt;/td&gt;&lt;/tr&gt;&lt;/table&gt;
&lt;/div&gt;
&lt;/div&gt;&lt;pre&gt;&lt;code&gt;----------------------------------------------------------------
Layer (type) Output Shape Param #
================================================================
Conv2d-1 [1, 32, 32, 32] 896
BatchNorm2d-2 [1, 32, 32, 32] 64
ReLU-3 [1, 32, 32, 32] 0
Conv2d-4 [1, 32, 32, 32] 9,248
ReLU-5 [1, 32, 32, 32] 0
MaxPool2d-6 [1, 32, 16, 16] 0
Conv2d-7 [1, 64, 16, 16] 18,496
BatchNorm2d-8 [1, 64, 16, 16] 128
ReLU-9 [1, 64, 16, 16] 0
Conv2d-10 [1, 64, 16, 16] 36,928
ReLU-11 [1, 64, 16, 16] 0
MaxPool2d-12 [1, 64, 15, 15] 0
Flatten-13 [1, 14400] 0
Linear-14 [1, 512] 7,373,312
BatchNorm1d-15 [1, 512] 1,024
ReLU-16 [1, 512] 0
Dropout-17 [1, 512] 0
Linear-18 [1, 128] 65,664
BatchNorm1d-19 [1, 128] 256
ReLU-20 [1, 128] 0
Dropout-21 [1, 128] 0
Linear-22 [1, 10] 1,290
================================================================
Total params: 7,507,306
Trainable params: 7,507,306
Non-trainable params: 0
----------------------------------------------------------------
Input size (MB): 0.01
Forward/backward pass size (MB): 2.18
Params size (MB): 28.64
Estimated Total Size (MB): 30.83
----------------------------------------------------------------
&lt;/code&gt;&lt;/pre&gt;
…
